S7/Optimisation/Stochastique/TP2/best_model.pt (torch, 60962 bytes, 23 tensors)

bn.weight f4 [16]
0	0x3f80cfea	1.006345
1	0x3f8125d3	1.0089668
2	0x3f7e8fb3	0.9943802
3	0x3f7efcb8	0.9960437
4	0x3f7ebc9b	0.9950654
5	0x3f800337	1.0000981
6	0x3f81b59c	1.0133548
7	0x3f809eeb	1.0048498
8	0x3f83fe1e	1.0311925
9	0x3f811e35	1.0087343
10	0x3f807336	1.003516
11	0x3f8059e3	1.0027431
12	0x3f807846	1.0036705
13	0x3f7e1e4d	0.99264985
14	0x3f84693e	1.0344617
15	0x3f80be3d	1.0058056

bn.bias f4 [16]
0	0x3bd416a3	0.006472425
1	0xbb1869e9	-0.0023256487
2	0xbc5affce	-0.013366653
3	0x3beda1aa	0.007251938
4	0x3b84426c	0.0040362384
5	0x3b2539e1	0.00252115
6	0x3ab60dc5	0.0013889602
7	0x3b95d1b8	0.0045721196
8	0x3b32a380	0.0027258098
9	0xba025de4	-0.0004973097
10	0xbc5df777	-0.01354777
11	0x3ab2e506	0.0013648577
12	0xbb8b5f9a	-0.00425334
13	0x3c572329	0.013130941
14	0xbc9ae5e8	-0.018908456
15	0xbc947423	-0.018121785

bn.running_mean f4 [16]
0	0x3e92beb6	0.28661126
1	0x3e51d6ed	0.20492144
2	0x3e15c27a	0.14624968
3	0x3e0c0b47	0.13676177
4	0x3e065a9d	0.13120504
5	0x3e0ed68d	0.13949032
6	0x3e032c38	0.12809837
7	0x3df94102	0.121706024
8	0x3e24bbac	0.16087216
9	0x3e22098a	0.15823951
10	0x3e0602ec	0.13087052
11	0x3e1273c3	0.14301972
12	0x3e92d5b5	0.2867867
13	0x3e352b68	0.1769234
14	0x3e0f6def	0.1400678
15	0x3df623d2	0.12018551

bn.running_var f4 [16]
0	0x3d97099f	0.07374882
1	0x3cff44ad	0.031160677
2	0x3d6b7c8e	0.05749183
3	0x3da330d0	0.079682946
4	0x3d9d3754	0.076765686
5	0x3da90702	0.0825329
6	0x3d357b2e	0.044306926
7	0x3d4a47fb	0.049385052
8	0x3d823d8c	0.063593954
9	0x3d9b44b8	0.075814664
10	0x3d6050cc	0.054764554
11	0x3da97c4c	0.08275661
12	0x3d7c9b37	0.061671462
13	0x3d90abc6	0.07064013
14	0x3d232f3e	0.039839976
15	0x3d5e14b2	0.054218955

conv1.0.weight f4 [16, 1, 5, 5]
0	0x3e1ceab2	0.15323904
1	0x3e2b45a8	0.1672579
2	0xbd3cf770	-0.046134412
3	0x3e3a0b41	0.18168356
4	0xbd4ac021	-0.049499635
5	0x3d243ed1	0.04009897
6	0xbdc8f169	-0.0981167
7	0x3de9ea9c	0.11421701
8	0x3e319af0	0.1734426
9	0xbe198431	-0.14991833
10	0x3e2f88a2	0.17141965
11	0x3d1be81f	0.038063165
12	0x3e16869f	0.14699791
13	0x3ce275bd	0.027644033
14	0x3dc994fc	0.0984287
15	0xbd0dc179	-0.034608338
16	0x3e1d0506	0.15333948
17	0x3ce13117	0.027489228
18	0xbdc5fd79	-0.09667487
19	0x3d4c0d96	0.049817644
20	0xbdc5cb65	-0.09657935
21	0xbcc0ab31	-0.02351913
22	0xbda60527	-0.081064515
23	0x3e054698	0.1301521
24	0xbe22af4a	-0.1588718
25	0xbdbc7d03	-0.092035316
26	0xbd757488	-0.059925586
27	0xbdf826f3	-0.12116804
28	0x3cb577f0	0.022151917
29	0xbe40fa09	-0.18845381
30	0x3e3cbfc3	0.18432526
31	0xbe2b1947	-0.16708861
32	0x3e236a40	0.159585
33	0x3d0b1070	0.033951223
34	0xbd869c7b	-0.06572815
35	0x3e00d2f4	0.12580472
36	0x3d101ca9	0.035183582
37	0x3e2e9775	0.17049964
38	0x3cdee2a7	0.027207686
39	0xbd74a74d	-0.059729863
40	0x3d515bc5	0.05111291
41	0xbd6b78f9	-0.057488415
42	0x3da9b0b6	0.08285658
43	0x3e351808	0.17684948
44	0x3def8e43	0.11697056
45	0xbdaf4f1d	-0.085600115
46	0x3dea6701	0.11445428
47	0x3ce8055d	0.02832287
48	0x3dbb5531	0.09147108
49	0xbdfcebc8	-0.12349659
50	0xbe43a0d9	-0.19104327
51	0xbd9d2c6b	-0.07674488
52	0xbe043748	-0.12911713
53	0x3e53c414	0.20680267
54	0x3dbf7ac2	0.09349586
55	0x3d9c8223	0.07642009
56	0x3d6f8e33	0.05848522
57	0x3c5f5f8c	0.01363362
58	0x3e4b842f	0.19874643
59	0xbdc77145	-0.09738401
60	0x3bc8bb85	0.0061258697
61	0xbe0a63f0	-0.13514686
62	0x3d8b72f0	0.06809032
63	0xbd37bfcc	-0.044860646
64	0x3dd60937	0.10450976
65	0xbd41f81e	-0.047355764
66	0x3e3a3666	0.18184814
67	0xbdd9cc70	-0.106346965
68	0xbdd913e1	-0.10599495
69	0xbda5fe1e	-0.0810511
70	0x3e2b2a24	0.16715294
71	0x3db0b05a	0.086273864
72	0x3e5d6d09	0.21623625
73	0xbe12c969	-0.14334644
74	0xbe1cd111	-0.15314128
75	0xbe3357e0	-0.1751399
76	0xbe07a64d	-0.13247032
77	0x3da822ac	0.08209738
78	0x3d829f8e	0.06378089
79	0x3e1e1a8a	0.15439811
80	0xbdf9f6bd	-0.12205265
81	0xbe077ccd	-0.13231201
82	0x3de76662	0.11298825
83	0xbda5b080	-0.08090305
84	0x3deffe68	0.11718446
85	0xbd8e464d	-0.069470026
86	0x3df26413	0.11835494
87	0xbe1342a9	-0.14380898
88	0xbdc50cd0	-0.096215844
89	0x3d80bbba	0.06285806
90	0x3c67dccc	0.014151763
91	0xbd4edb2c	-0.050501987
92	0x3e07740a	0.13227859
93	0x3e143da6	0.14476642
94	0xbe0b68c9	-0.13614191
95	0xbe06fe3d	-0.13182922
96	0x3e3ffba3	0.18748336
97	0xbd3342fd	-0.043765057
98	0xbd461009	-0.048355136
99	0xbe2b7645	-0.16744335
100	0xbdea90d3	-0.11453404
101	0x3d4ca3a0	0.049960732
102	0xbcd841f3	-0.026398635
103	0xbe14a955	-0.1451772
104	0x3b99b9cd	0.0046913386
105	0xbe0be525	-0.1366163
106	0xbe2dc06b	-0.16967933
107	0xbde18d2a	-0.11013253
108	0xbe333e52	-0.17504242
109	0xbe02676a	-0.12734762
110	0x3e4cb7c6	0.19991979
111	0x3d1ab809	0.037773166
112	0x3d7c6fe4	0.061630145
113	0xbe3f0386	-0.18653688
114	0xbe0681dd	-0.13135476
115	0xbd885735	-0.066572584
116	0x3d00184e	0.03127318
117	0xbe34358b	-0.1759855
118	0xbdb07c50	-0.08617461
119	0xbdf536f3	-0.11973371
120	0x3a10fdd6	0.00055309886
121	0xbd986a3b	-0.07442137
122	0xbc631676	-0.013860336
123	0xbe0ac750	-0.13552594
124	0xbe0c92e0	-0.13727903
125	0xbdef2e08	-0.11678702
126	0xbd8c5566	-0.06852226
127	0xbe21b91b	-0.15793268
128	0x3e2b93a3	0.16755538
129	0xbd229631	-0.039694015
130	0x3e301ba7	0.17198049
131	0x3d7f0d3a	0.062268473
132	0xbe2d7d46	-0.1694232
133	0x3e0d97a8	0.13827384
134	0xbd616652	-0.05502922
135	0xbd9d480f	-0.0767976
136	0xbe2a17f0	-0.16610694
137	0xbe4bb618	-0.19893682
138	0x3d69be99	0.057066534
139	0xbd32f329	-0.043688927
140	0x3d9f0f97	0.077666454
141	0xbe2842ed	-0.1643178
142	0x3e17db49	0.14829744
143	0xbe168a0b	-0.14701097
144	0xbd0d74a5	-0.03453507
145	0x3d2a09d8	0.041513294
146	0x3dd2e499	0.10297508
147	0x3e250efe	0.16119
148	0x3e3a4ffe	0.18194577
149	0xbe226437	-0.15858541
150	0x3d52f2d0	0.051501095
151	0xbdaced5f	-0.084437124
152	0xbca3da73	-0.020001626
153	0xbe194a6a	-0.14969793
154	0x3e3a8b42	0.18217185
155	0xbe16b874	-0.14718801
156	0x3ddb63de	0.107124075
157	0x3d90dcd7	0.07073372
158	0x3d851510	0.06498158
159	0xbddd72d9	-0.10812921
160	0x3e39f488	0.18159688
161	0x3d360ad5	0.044443924
162	0x3cd78803	0.026309973
163	0xbe347da7	-0.17626058
164	0x3dabf202	0.08395769
165	0xbcfb2fc8	-0.030662432
166	0xbdbb68b1	-0.09150828
167	0x3e305dff	0.17223357
168	0x3d369a60	0.044580817
169	0xbde29f3e	-0.11065529
170	0xbdd161a3	-0.10223701
171	0xbc20d843	-0.009817186
172	0x3de537c2	0.111922756
173	0xbd515dee	-0.05111497
174	0xbde9b525	-0.11411504
175	0xbd977721	-0.07395769
176	0xbe21b5e0	-0.15792036
177	0x3da1bf85	0.078978576
178	0x3e269922	0.16269353
179	0xbe384c0a	-0.17997757
180	0x3d2052f4	0.03914161
181	0x3dd40f55	0.10354487
182	0x3ce9aaff	0.02852392
183	0xbdc04a6b	-0.09389194
184	0x3dc5353f	0.096292965
185	0x3de09f3e	0.10967873
186	0x3dab1602	0.08353807
187	0xbd442a92	-0.04789216
188	0xbdb04c63	-0.086083196
189	0x3b66bed9	0.003520897
190	0xbd18a900	-0.037270546
191	0xbd8578ce	-0.06517182
192	0x3dfbb27e	0.12289904
193	0x3e25c221	0.16187336
194	0xbd075032	-0.033035465
195	0xbcd6a9f5	-0.026204089
196	0x3aaf8367	0.0013390601
197	0xbc231774	-0.009954322
198	0x3d3dfec6	0.04638555
199	0x3d106a29	0.035257492
200	0xbe3a02e9	-0.18165173
201	0xbd9728ac	-0.073808044
202	0x3e2c779e	0.16842505
203	0x3d9f8f25	0.077909745
204	0xbc230146	-0.009949034
205	0xbdf6f39b	-0.12058183
206	0xbdfa98a2	-0.12236144
207	0xbe37740f	-0.17915367
208	0xbd8583f6	-0.0651931
209	0x3d8a5247	0.067539744
210	0x3e027b3d	0.12742324
211	0x3dbcf664	0.09226683
212	0xbe3510e9	-0.17682232
213	0xbdf65fa2	-0.12029959
214	0xbd0155a9	-0.031575833
215	0x3e45fe9a	0.19335404
216	0x3cec533f	0.028848289
217	0xbd544d93	-0.051831793
218	0x3da96941	0.08272029
219	0xbd9c05db	-0.07618304
220	0xbe04ab19	-0.12955894
221	0x3e15665a	0.14589825
222	0xbdba52e4	-0.090978414
223	0xbd2451ba	-0.040117003
224	0xbe4bbe39	-0.19896783
225	0x3de2990a	0.11064346
226	0x3e1bb044	0.15203959
227	0x3da0a9ce	0.07844888
228	0xbe0fd796	-0.14047083
229	0xbe3bf105	-0.1835366
230	0xbe3149ce	-0.1731331
231	0x3e20f9d9	0.1572031
232	0x3ded28d4	0.11580053
233	0x3e452c1c	0.19255108
234	0x3e0f4e21	0.13994648
235	0x3d5df3c9	0.05418757
236	0xbb85692e	-0.0040713763
237	0xbe1c19a3	-0.15244155
238	0xbe1fa55f	-0.15590428
239	0xbe1e0eae	-0.15435287
240	0x3de7eca2	0.11324431
241	0xbd9d47aa	-0.076796845
242	0xbcaf05e3	-0.021365112
243	0xbda80886	-0.08204751
244	0x3bfcef43	0.007718952
245	0xbded7b08	-0.11595732
246	0xbdcd61f1	-0.100284465
247	0x3dda3655	0.10654894
248	0xbc4adc6e	-0.012381656
249	0x3e26e599	0.16298522
250	0xbd2b03fb	-0.041751843
251	0xbdeee270	-0.11664283
252	0x3b512918	0.0031915363
253	0xbd886634	-0.06660119
254	0xbd2c3b0c	-0.0420485
255	0xbe399cca	-0.18126217

conv1.0.bias f4 [16]
0	0xbd6619c4	-0.056176916
1	0x3e0a34e6	0.13496742
2	0x3d5455cb	0.05183963
3	0x3c9373e3	0.017999595
4	0xbd499f5a	-0.049224235
5	0xbe39e302	-0.18153003
6	0xbe3f0b22	-0.1865659
7	0xbd66399e	-0.05620729
8	0xbdd053e4	-0.10172251
9	0x3da8da9a	0.0824482
10	0xbcbd5e5d	-0.023116285
11	0xbda020b2	-0.07818736
12	0x3e4340a8	0.19067633
13	0x3d8e6cfe	0.06954382
14	0x3dff16fd	0.124555565
15	0xbd273472	-0.0408215

conv1.2.weight f4 [16]
0	0x3f80cfea	1.006345
1	0x3f8125d3	1.0089668
2	0x3f7e8fb3	0.9943802
3	0x3f7efcb8	0.9960437
4	0x3f7ebc9b	0.9950654
5	0x3f800337	1.0000981
6	0x3f81b59c	1.0133548
7	0x3f809eeb	1.0048498
8	0x3f83fe1e	1.0311925
9	0x3f811e35	1.0087343
10	0x3f807336	1.003516
11	0x3f8059e3	1.0027431
12	0x3f807846	1.0036705
13	0x3f7e1e4d	0.99264985
14	0x3f84693e	1.0344617
15	0x3f80be3d	1.0058056

conv1.2.bias f4 [16]
0	0x3bd416a3	0.006472425
1	0xbb1869e9	-0.0023256487
2	0xbc5affce	-0.013366653
3	0x3beda1aa	0.007251938
4	0x3b84426c	0.0040362384
5	0x3b2539e1	0.00252115
6	0x3ab60dc5	0.0013889602
7	0x3b95d1b8	0.0045721196
8	0x3b32a380	0.0027258098
9	0xba025de4	-0.0004973097
10	0xbc5df777	-0.01354777
11	0x3ab2e506	0.0013648577
12	0xbb8b5f9a	-0.00425334
13	0x3c572329	0.013130941
14	0xbc9ae5e8	-0.018908456
15	0xbc947423	-0.018121785

conv1.2.running_mean f4 [16]
0	0x3e92beb6	0.28661126
1	0x3e51d6ed	0.20492144
2	0x3e15c27a	0.14624968
3	0x3e0c0b47	0.13676177
4	0x3e065a9d	0.13120504
5	0x3e0ed68d	0.13949032
6	0x3e032c38	0.12809837
7	0x3df94102	0.121706024
8	0x3e24bbac	0.16087216
9	0x3e22098a	0.15823951
10	0x3e0602ec	0.13087052
11	0x3e1273c3	0.14301972
12	0x3e92d5b5	0.2867867
13	0x3e352b68	0.1769234
14	0x3e0f6def	0.1400678
15	0x3df623d2	0.12018551

conv1.2.running_var f4 [16]
0	0x3d97099f	0.07374882
1	0x3cff44ad	0.031160677
2	0x3d6b7c8e	0.05749183
3	0x3da330d0	0.079682946
4	0x3d9d3754	0.076765686
5	0x3da90702	0.0825329
6	0x3d357b2e	0.044306926
7	0x3d4a47fb	0.049385052
8	0x3d823d8c	0.063593954
9	0x3d9b44b8	0.075814664
10	0x3d6050cc	0.054764554
11	0x3da97c4c	0.08275661
12	0x3d7c9b37	0.061671462
13	0x3d90abc6	0.07064013
14	0x3d232f3e	0.039839976
15	0x3d5e14b2	0.054218955

conv2.0.weight f4 [16, 16, 5, 5]
0	0xbcb5aa24	-0.022175856
1	0x3c994f41	0.018714549
2	0xbd003ab0	-0.03130597
3	0xbd085f88	-0.03329423
4	0x3a9e69e5	0.0012086002
5	0xbcacccdc	-0.021093778
6	0xbd1cdb07	-0.03829482
7	0x3cf4be55	0.029875914
8	0x3d1628ab	0.036659878
9	0x3c0ab9d7	0.008467159
10	0xbc2a393f	-0.010389625
11	0xbd3b58a6	-0.04573884
12	0xbc8d7c10	-0.017271072
13	0x3c043f5c	0.008071747
14	0x3cb44910	0.022007495
15	0xbbdc5e17	-0.0067250836
16	0xbc944527	-0.01809938
17	0x3cef09b2	0.029179428
18	0xbd377c7d	-0.044796456
19	0x3cf0c788	0.029392019
20	0xbc9e4b1c	-0.019322924
21	0x3b270696	0.0025486103
22	0xbc13e6d0	-0.009027198
23	0x3a51eaea	0.0008007722
24	0xbc8f41af	-0.017487375
25	0x3d040570	0.032231748
26	0xbbc6a394	-0.0060619805
27	0x3d13d92d	0.036095787
28	0x3d201ff0	0.039092958
29	0xbcfab326	-0.030603003
30	0xbd1a0cec	-0.03760998
31	0x3d1bd67d	0.03804635
32	0x3d1a0018	0.037597746
33	0xbd423ac7	-0.047419336
34	0xbc2d7492	-0.010586875
35	0xbd443b64	-0.0479082
36	0xbd23aa38	-0.039957255
37	0x3c33f24b	0.01098306
38	0x3bce6931	0.006299161
39	0x3bbcbdd2	0.005759933
40	0xbc4527e8	-0.01203344
41	0x3d45cf02	0.04829312
42	0x3c231de5	0.009955858
43	0xbd0ddf27	-0.034636643
44	0xbbc978b4	-0.006148422
45	0x3c71fe25	0.014770065
46	0x3cafce03	0.021460539
47	0xbcfa5db7	-0.030562265
48	0x3c85069c	0.016238503
49	0xbcd5eb31	-0.026113125
50	0xbd2587c7	-0.04041269
51	0xbccf194f	-0.025280623
52	0x3d60d739	0.054892752
53	0x3d3b1f78	0.045684308
54	0x3d2becbe	0.04197382
55	0x3ceeb248	0.029137745
56	0x3d23f6f4	0.040030435
57	0x3a1770ee	0.00057770207
58	0xbcc5d8d3	-0.024151241
59	0x3cb0a2a6	0.021561932
60	0xbcd1b36c	-0.02559825
61	0xbcfd6e7e	-0.030936476
62	0xbc1fed44	-0.009761158
63	0x3c4b6dac	0.0124162845
64	0x3cc41508	0.02393581
65	0xbc8cdb48	-0.017194405
66	0xbcd6e7f5	-0.026233653
67	0x3c2d071a	0.010560775
68	0xbcfb3e2c	-0.030669294
69	0xbd0ae3ae	-0.03390854
70	0x3cf940bd	0.030426377
71	0xbb900a47	-0.0043957564
72	0x3d481205	0.04884531
73	0x3d42d880	0.04756975
74	0x3c80918f	0.015694408
75	0x3c9536a2	0.018214528
76	0x3c1f8fb3	0.00973885
77	0xbafcc8bb	-0.0019285897
78	0xbb162b7e	-0.0022914107
79	0x3b1cab6a	0.0023905882
80	0x3c9b10ba	0.018928874
81	0x3d33772b	0.04381482
82	0xbc87f657	-0.016596956
83	0xbca83f68	-0.020538047
84	0xbc36c64c	-0.011155676
85	0xbccaed56	-0.024771374
86	0x3ba4593c	0.0050155204
87	0x3d091ea2	0.03347648
88	0x3d2012fe	0.039080612
89	0x3cc03dca	0.023466963
90	0xbd1ca901	-0.038247112
91	0xbcfbe0c0	-0.030746818
92	0xbc768f2f	-0.015048786
93	0xbc267a69	-0.010161021
94	0x3b813655	0.0039432445
95	0xbd43bb58	-0.047786087
96	0x3c20efc4	0.00982279
97	0xbd32093c	-0.043465838
98	0xbd06aa2d	-0.032877136
99	0xbd298317	-0.041384783
100	0x3d328111	0.04358012
101	0xbd41e3ec	-0.047336504
102	0x3d1a8895	0.03772791
103	0xbadad34a	-0.0016695049
104	0xbbbe26f4	-0.0058029834
105	0x3d00289b	0.031288724
106	0xbb971468	-0.004610587
107	0x3d007b25	0.03136744
108	0x3d141f5f	0.03616273
109	0xbd31c221	-0.043398026
110	0x3c9dba72	0.019253943
111	0x3c1ad2c5	0.009449665
112	0x3c304a3d	0.010759887
113	0x3bef9426	0.007311362
114	0x3c604544	0.013688389
115	0xbcc4ee9e	-0.024039563
116	0xbbd14bce	-0.0063872105
117	0x3d429ec3	0.04751469
118	0x3d09a3cf	0.033603486
119	0xbaf4c97f	-0.0018675773
120	0xbd4090f2	-0.04701323
121	0x3b1038a2	0.0022006412
122	0xbd0b6e00	-0.03404045
123	0x3d26959b	0.04067002
124	0xbcf89433	-0.030344104
125	0xbb6c2612	-0.0036033434
126	0xbc35a357	-0.011086307
127	0x3c11fbbe	0.008910118
128	0x3d40c84c	0.047066018
129	0x3b9c0f64	0.004762577
130	0x3ced4801	0.028964998
131	0x3d1f0aa1	0.038828496
132	0x3d255d8a	0.04037241
133	0xbc8d536f	-0.017251698
134	0xbc370d9f	-0.011172681
135	0x3cc57541	0.024103763
136	0xbc5f615b	-0.013634051
137	0x3cbfd954	0.02341906
138	0xbc32cc6b	-0.010912995
139	0xbd0ae0d8	-0.033905834
140	0x3ca6c6db	0.020358494
141	0x3bfb8238	0.0076754354
142	0x3cb6a6a5	0.02229626
143	0x3d4b7de3	0.0496806
144	0x3d0bda97	0.03414401
145	0x3d422b83	0.047404777
146	0x3b3026ba	0.0026878552
147	0xbd3027c1	-0.043006662
148	0xbd0fa68a	-0.035070933
149	0xbcfe63fc	-0.031053536
150	0xbd348275	-0.044069726
151	0xbccd5a2e	-0.025067415
152	0xbd3c7877	-0.04601332
153	0xbd3d0cdc	-0.04615484
154	0xbcf44976	-0.029820185
155	0xbd49ee09	-0.049299274
156	0xbcfb75a4	-0.030695744
157	0x3c9c3be8	0.019071534
158	0x3d2ac6e0	0.04169357
159	0xbc733165	-0.01484332
160	0xbc6e69af	-0.014551564
161	0x3cdaaa65	0.026692579
162	0xbcc9cbff	-0.024633406
163	0xbcc11c02	-0.023572925
164	0x3cfca543	0.030840522
165	0xbd32791e	-0.043572538
166	0x3bc82ab1	0.006108605
167	0x3d351895	0.044212896
168	0x3c0cdcfa	0.008597607
169	0x3c5e8789	0.013582119
170	0xbcee9b94	-0.02912692
171	0xba362485	-0.0006948191
172	0x3b36436d	0.0027811185
173	0x3c4922a0	0.012276322
174	0x3c9edba8	0.01939185
175	0x3d262ba2	0.040568955
176	0xbd2d9a8a	-0.042383708
177	0xbad38247	-0.0016136848
178	0xbcfa5501	-0.030558111
179	0xbd223e1f	-0.039610025
180	0xbbcba0a3	-0.0062142177
181	0xbd498780	-0.04920149
182	0x3cfabfa6	0.030608963
183	0xb76f0e64	-1.4248861e-05
184	0xbcddb5ad	-0.027064169
185	0x3cd5b973	0.026089406
186	0xbd4af008	-0.049545318
187	0xbca31360	-0.0199067
188	0xbc4dc9ff	-0.012560367
189	0xbd28e096	-0.041229807
190	0xbcff7d08	-0.03118755
191	0xbbf1b5ca	-0.0073764073
192	0x3d26b8b5	0.040703494
193	0x3d3de0d7	0.046357002
194	0x3d019728	0.031638294
195	0xbcdcf7cb	-0.026973626
196	0xbcf0c922	-0.029392783
197	0x3d430e2d	0.04762094
198	0x3c7b216d	0.015327794
199	0x3a772652	0.00094280124
200	0x3bdda4b0	0.006764017
201	0xbd24989d	-0.040184606
202	0xbc891019	-0.016731309
203	0x3d452b91	0.04813725
204	0xbc4a3997	-0.012342832
205	0xbb249d88	-0.002511831
206	0xbd2a0ebf	-0.04151797
207	0xbce524c6	-0.027971637
208	0xba838dfc	-0.0010036821
209	0xbcfe72f1	-0.031060668
210	0xbbcb48be	-0.00620374
211	0x3ca6adee	0.020346608
212	0xbd4855a3	-0.048909795
213	0x3c735f64	0.014854286
214	0xbd076e9f	-0.03306448
215	0xbcc7ef7d	-0.02440619
216	0x3c9d3c49	0.019193785
217	0x3d22d648	0.039755136
218	0xbc5fef1b	-0.013667847
219	0xbca830bc	-0.02053105
220	0xbd393385	-0.04521515
221	0xbcd33a36	-0.025784593
222	0xbd33558c	-0.043782756
223	0xbc3b87c3	-0.011445942
224	0x3c271ded	0.010200006
225	0xbd2ce94b	-0.042214673
226	0x3d363d60	0.044492126
227	0x3ce73d69	0.028227525
228	0xbd42712d	-0.047471214
229	0xbcbcb8c7	-0.023037327
230	0x3ca43445	0.020044455
231	0xbc33f624	-0.0109839775
232	0xbc1786c2	-0.009248437
233	0xbcaaa7cd	-0.020831967
234	0x3d2569ed	0.04038422
235	0xbcd05234	-0.025429823
236	0x3d2a8e2a	0.041639484
237	0x3ad625c7	0.0016338163
238	0x3c4cedec	0.012507897
239	0x3d149638	0.036276072
240	0xbbca2cb2	-0.006169879
241	0xbce7a9c3	-0.02827919
242	0xbc17f429	-0.009274521
243	0x3d2b9b98	0.041896433
244	0xbd2f6e13	-0.042829584
245	0x3c66f43d	0.014096317
246	0xbd43b92d	-0.04778402
247	0x3cd099e4	0.025464006
248	0x3c94baf3	0.01815555
249	0xbbc08a38	-0.005875852
250	0x3caa25c3	0.02076996
251	0xbaf66f7d	-0.0018801537
252	0x3cd9ad0e	0.026571777
253	0xbd2a1339	-0.04152224
254	0xbbe828c0	-0.007084936
255	0x3cc0fc2a	0.023557741

conv2.0.bias f4 [16]
0	0x3d07cce6	0.03315439
1	0xbcff7eba	-0.031188358
2	0xbc9c4663	-0.019076532
3	0x3d0acb5c	0.033885345
4	0xbcbdd12f	-0.023171036
5	0xbb8dc778	-0.004326757
6	0xbcca8eee	-0.024726357
7	0xbd44068f	-0.047857817
8	0xbca48806	-0.020084392
9	0xbc97dea0	-0.018538773
10	0xbcc315ed	-0.023814166
11	0xbc26b27f	-0.010174393
12	0x3c6f6846	0.014612263
13	0x3d363fbb	0.04449437
14	0xbc8a8a92	-0.016911779
15	0xbbd9124b	-0.006624495

conv2.2.weight f4 [16]
0	0x3f80cfea	1.006345
1	0x3f8125d3	1.0089668
2	0x3f7e8fb3	0.9943802
3	0x3f7efcb8	0.9960437
4	0x3f7ebc9b	0.9950654
5	0x3f800337	1.0000981
6	0x3f81b59c	1.0133548
7	0x3f809eeb	1.0048498
8	0x3f83fe1e	1.0311925
9	0x3f811e35	1.0087343
10	0x3f807336	1.003516
11	0x3f8059e3	1.0027431
12	0x3f807846	1.0036705
13	0x3f7e1e4d	0.99264985
14	0x3f84693e	1.0344617
15	0x3f80be3d	1.0058056

conv2.2.bias f4 [16]
0	0x3bd416a3	0.006472425
1	0xbb1869e9	-0.0023256487
2	0xbc5affce	-0.013366653
3	0x3beda1aa	0.007251938
4	0x3b84426c	0.0040362384
5	0x3b2539e1	0.00252115
6	0x3ab60dc5	0.0013889602
7	0x3b95d1b8	0.0045721196
8	0x3b32a380	0.0027258098
9	0xba025de4	-0.0004973097
10	0xbc5df777	-0.01354777
11	0x3ab2e506	0.0013648577
12	0xbb8b5f9a	-0.00425334
13	0x3c572329	0.013130941
14	0xbc9ae5e8	-0.018908456
15	0xbc947423	-0.018121785

conv2.2.running_mean f4 [16]
0	0x3e92beb6	0.28661126
1	0x3e51d6ed	0.20492144
2	0x3e15c27a	0.14624968
3	0x3e0c0b47	0.13676177
4	0x3e065a9d	0.13120504
5	0x3e0ed68d	0.13949032
6	0x3e032c38	0.12809837
7	0x3df94102	0.121706024
8	0x3e24bbac	0.16087216
9	0x3e22098a	0.15823951
10	0x3e0602ec	0.13087052
11	0x3e1273c3	0.14301972
12	0x3e92d5b5	0.2867867
13	0x3e352b68	0.1769234
14	0x3e0f6def	0.1400678
15	0x3df623d2	0.12018551

conv2.2.running_var f4 [16]
0	0x3d97099f	0.07374882
1	0x3cff44ad	0.031160677
2	0x3d6b7c8e	0.05749183
3	0x3da330d0	0.079682946
4	0x3d9d3754	0.076765686
5	0x3da90702	0.0825329
6	0x3d357b2e	0.044306926
7	0x3d4a47fb	0.049385052
8	0x3d823d8c	0.063593954
9	0x3d9b44b8	0.075814664
10	0x3d6050cc	0.054764554
11	0x3da97c4c	0.08275661
12	0x3d7c9b37	0.061671462
13	0x3d90abc6	0.07064013
14	0x3d232f3e	0.039839976
15	0x3d5e14b2	0.054218955

conv3.0.weight f4 [16, 16, 5, 5]
0	0xbd4a0981	-0.04932547
1	0xbb8bf28c	-0.004270857
2	0xbbf37fe3	-0.007431017
3	0x3d0fb2f7	0.035082784
4	0xbc8cf225	-0.017205307
5	0xbd560e94	-0.052259997
6	0x3c520162	0.0128177125
7	0xbc80b494	-0.015711106
8	0x3c73c848	0.014879294
9	0x3c305508	0.0107624605
10	0x3c497cbf	0.012297808
11	0x3cbe5312	0.02323297
12	0xbd1c9c73	-0.03823514
13	0xbd239261	-0.03993452
14	0x3d3a6241	0.04550386
15	0x3d2c3480	0.042042255
16	0xbcba3c9b	-0.022733977
17	0x3d313dab	0.0432717
18	0x3c234e69	0.009967425
19	0xbc4388fd	-0.011934516
20	0xbcf1a763	-0.029498762
21	0xbcefd515	-0.02927641
22	0x3d099045	0.03358485
23	0xbd09bc69	-0.033626948
24	0xbca67330	-0.020318598
25	0x3d028928	0.031869084
26	0xbd19392c	-0.03740804
27	0x3d0a15b7	0.033712115
28	0x3c232eb7	0.009959868
29	0x3c348008	0.011016853
30	0xb96eba2c	-0.00022766803
31	0xbc67d003	-0.014148715
32	0x3c658a2f	0.014009996
33	0x3c0ddc78	0.008658521
34	0xbd0bff62	-0.0341791
35	0xbd504027	-0.05084243
36	0xbd337cca	-0.04382018
37	0xbc3a49db	-0.011370148
38	0x3c2aeedc	0.010432925
39	0xbd156c05	-0.03647997
40	0xbb6c51ca	-0.0036059492
41	0x3cb1dc6b	0.021711549
42	0x3cc35448	0.0238439
43	0xbcb206fd	-0.021731848
44	0x3bd4ffda	0.0065002264
45	0xbd6c6855	-0.057716686
46	0x3cd308a6	0.02576096
47	0xbd3cf4da	-0.046131946
48	0xbae92ed9	-0.0017790451
49	0xbcbea036	-0.023269754
50	0xbd37fb35	-0.044917304
51	0xbd281245	-0.04103305
52	0xbce27f54	-0.027648605
53	0xbd0491a5	-0.03236546
54	0x3d229568	0.039693266
55	0xbc761ca2	-0.015021475
56	0xbd0b681b	-0.03403483
57	0x3a580083	0.00082398223
58	0xbcaf111e	-0.021370467
59	0xbbf048fd	-0.0073329196
60	0x3d16bca6	0.036801003
61	0xbd38c9d5	-0.045114357
62	0xbd3a6ed2	-0.045515843
63	0x3c0cb93a	0.008589083
64	0x3cf409eb	0.029789886
65	0xbd4e3ab4	-0.050348952
66	0x3c73e85f	0.014886945
67	0x3d43e12f	0.047822174
68	0xbc201ddb	-0.009772743
69	0xbd073621	-0.033010606
70	0x3c94056a	0.018068988
71	0x3ccbe52e	0.024889555
72	0xbbab0d01	-0.005220056
73	0xbd1e983c	-0.0387194
74	0x3b37eb60	0.0028063878
75	0xbcf08096	-0.02935819
76	0xbd2b99d8	-0.041894764
77	0x3cd9f9d9	0.026608394
78	0x3cd8ad30	0.02644977
79	0x3c5cc2ba	0.013474161
80	0xbd1500c0	-0.03637767
81	0x3d3583d8	0.04431519
82	0x3d0cf705	0.034415264
83	0x3d24e09d	0.04025327
84	0xbb8ae270	-0.0042384192
85	0xbbb0fa06	-0.005400899
86	0xbd2e26c0	-0.042517424
87	0x3d0e3994	0.03472288
88	0xbba87ab7	-0.005141582
89	0xbd51d907	-0.051232364
90	0x3d4f02bd	0.05053972
91	0xbbaaa3ef	-0.0052075307
92	0x3ce0f40a	0.027460117
93	0xbc36c9ba	-0.011156494
94	0xbc465d19	-0.012107157
95	0x3d326985	0.043557663
96	0x3d2bd849	0.041954312
97	0xbccaec61	-0.024770917
98	0xbb1c3659	-0.0023836105
99	0x3ce34f2c	0.027747713
100	0x3b4c57e6	0.0031180321
101	0xbc09536f	-0.0083817085
102	0x3d33a32f	0.043856796
103	0x3d3f4482	0.046696194
104	0xbbcf01c5	-0.0063173496
105	0x3d19bc1a	0.037532903
106	0xbb96c3f5	-0.0046009966
107	0x39e89632	0.00044362393
108	0x3d25073d	0.040290106
109	0x39e19920	0.0004302943
110	0xbad3bcfc	-0.0016154344
111	0xbc031d9c	-0.008002665
112	0xbd29ced5	-0.041457016
113	0x3d1ccaa0	0.038279176
114	0xbd153aa7	-0.03643289
115	0xbcf6fbaa	-0.0301493
116	0x3c7b97d4	0.015356023
117	0x3a9a754d	0.0011784226
118	0x3bff98d9	0.0078002033
119	0x3c392b91	0.011301891
120	0x3d6a54e9	0.057209883
121	0xbd1e85c3	-0.038701784
122	0xbcaf9575	-0.021433571
123	0x3c8ca847	0.017170085
124	0xbd162dae	-0.036664657
125	0xbcedc4cd	-0.029024506
126	0x3d3d7cc6	0.04626157
127	0x3cdcece2	0.026968423
128	0xbc17f7cc	-0.009275388
129	0x3c94c3b2	0.018159721
130	0x3c8634cb	0.016382596
131	0xb9f8e550	-0.00047473097
132	0x3d3960ed	0.04525845
133	0x3b8d8d06	0.00431979
134	0x3d28badb	0.041193824
135	0xbd08d44d	-0.03340559
136	0xbc8be23d	-0.017075652
137	0x3c26b71b	0.010175492
138	0x3ceac765	0.028659532
139	0xbc817e74	-0.015807368
140	0x3d31232b	0.04324643
141	0xbd0fac22	-0.035076268
142	0xbc755948	-0.0149749
143	0x3d23eea3	0.040022504
144	0xbd03ccef	-0.03217786
145	0xbd1b16d8	-0.037863582
146	0xbb9444e4	-0.004524814
147	0xbd13e201	-0.036104206
148	0x3c92d520	0.017923892
149	0xbb573924	-0.0032840455
150	0xbcbbbd87	-0.022917522
151	0x3c9a616c	0.018845282
152	0xbafba0cc	-0.0019197701
153	0xbd541701	-0.05177975
154	0xbd5ec2f7	-0.05438515
155	0x3ca20373	0.019777035
156	0x3c227f13	0.009917992
157	0x3ca7d3ef	0.0204868
158	0xbd4a57fc	-0.049400315
159	0xbc7d9670	-0.015477762
160	0x3d0bc2ec	0.03412144
161	0x3cf7666f	0.030200211
162	0x3ccedffd	0.02525329
163	0x3d1041ab	0.035218876
164	0xbcc7d65f	-0.024394212
165	0xbd25b835	-0.040458877
166	0x3cc06405	0.023485193
167	0x3cd68556	0.026186626
168	0xbcd12336	-0.025529485
169	0xbc7d6cab	-0.015467803
170	0xbb823a0b	-0.0039742044
171	0xbd3ebbcd	-0.04656582
172	0xbcc51f4f	-0.02406278
173	0xbccc0dac	-0.024908863
174	0x3c0b78b7	0.008512667
175	0xbcb58b9a	-0.022161294
176	0x3c78db56	0.0151890125
177	0x3d1a5c56	0.037685715
178	0xbca2ce0d	-0.019873643
179	0xbc9622c1	-0.018327119
180	0xbd11e464	-0.0356182
181	0xbc17513c	-0.009235676
182	0xbd4c7e25	-0.04992499
183	0x3cc8fc04	0.024534233
184	0x3d0e312c	0.034714863
185	0x3c3af63c	0.011411246
186	0x3d32f279	0.04368827
187	0x3cc66358	0.024217293
188	0x3ce36351	0.027757319
189	0x3d2067e5	0.03916158
190	0xbd101502	-0.035176285
191	0xbba878ea	-0.005141367
192	0x3ca23a29	0.019803124
193	0xbc5e84fb	-0.01358151
194	0xbd16891b	-0.036751848
195	0xbc861bdd	-0.016370708
196	0xbcc36ad9	-0.02385466
197	0xbc8879d5	-0.016659657
198	0xbd1bdafd	-0.03805064
199	0xbc7c4f40	-0.015399754
200	0x3be08349	0.006851588
201	0xbd283c35	-0.041073043
202	0x3bf48f1b	0.0074633486
203	0xbd51ecda	-0.05125127
204	0xbd30c1d2	-0.04315359
205	0xbc41ee61	-0.011836619
206	0x3ce91b3f	0.028455375
207	0xbd77cc15	-0.060497362
208	0x3c0ea227	0.008705652
209	0xbbc9cb09	-0.006158237
210	0xbd5460c7	-0.051850107
211	0xbd3e55cc	-0.04646854
212	0x3c6d41f7	0.014481059
213	0xbd1033fe	-0.035205834
214	0x3cb94841	0.022617461
215	0xbd37d48a	-0.044880427
216	0x3d03c87f	0.03217363
217	0xbcec26d8	-0.028827116
218	0x3c7fa745	0.015603845
219	0x3c13d2c8	0.009022422
220	0xbd581d6b	-0.05276243
221	0xbd072e54	-0.033003166
222	0xbc839a11	-0.016064676
223	0xbb9aaa3f	-0.004720002
224	0x3c96423c	0.01834213
225	0xbc8f21dc	-0.0174722
226	0x3c499d36	0.012305548
227	0xbcbde6b1	-0.023181291
228	0xbca12ed7	-0.019675655
229	0x3d15d8b2	0.03658361
230	0xbc5b842b	-0.0133982105
231	0xbd26caaa	-0.04072062
232	0x3b95ceef	0.0045717875
233	0xbb8d99f9	-0.0043213335
234	0x3c88ebe9	0.016714053
235	0xbce048d7	-0.027378483
236	0x3b223f69	0.0024757034
237	0xbcc8a727	-0.024493767
238	0xbceeefce	-0.029167082
239	0x3c4ef3a6	0.0126313325
240	0x3c603a0a	0.013685713
241	0x3c135d77	0.008994452
242	0x3d35446e	0.044254713
243	0x3b884d18	0.004159581
244	0x3babf279	0.005247411
245	0xbbb3d025	-0.0054874592
246	0xbd3a59d4	-0.045495823
247	0x3c9b3186	0.018944513
248	0x3d203ab6	0.03911849
249	0x3bfd7823	0.0077352687
250	0xbd300701	-0.04297543
251	0x3d1af149	0.037827764
252	0x3bc37882	0.0059652934
253	0x3d08135b	0.033221584
254	0x3ca936b1	0.020655962
255	0x3b8eeb48	0.004361544

conv3.0.bias f4 [16]
0	0xbcdf8df9	-0.027289378
1	0xbd02c0e4	-0.031922236
2	0xbd3ce2ac	-0.04611461
3	0xbcc746d0	-0.024325758
4	0xbbe2c8da	-0.006920916
5	0xbb73f453	-0.0037224486
6	0x3cdd50c7	0.027016057
7	0xbcb8d312	-0.022561584
8	0x3d5ff21c	0.054674253
9	0xbcc76dcc	-0.024344347
10	0xbd3398c4	-0.04384686
11	0x3d1e7068	0.038681418
12	0xbcc09cb0	-0.023512214
13	0x3c02b219	0.007977032
14	0xbb4fd72a	-0.003171394
15	0xbc24d573	-0.010060656

conv3.2.weight f4 [16]
0	0x3f80cfea	1.006345
1	0x3f8125d3	1.0089668
2	0x3f7e8fb3	0.9943802
3	0x3f7efcb8	0.9960437
4	0x3f7ebc9b	0.9950654
5	0x3f800337	1.0000981
6	0x3f81b59c	1.0133548
7	0x3f809eeb	1.0048498
8	0x3f83fe1e	1.0311925
9	0x3f811e35	1.0087343
10	0x3f807336	1.003516
11	0x3f8059e3	1.0027431
12	0x3f807846	1.0036705
13	0x3f7e1e4d	0.99264985
14	0x3f84693e	1.0344617
15	0x3f80be3d	1.0058056

conv3.2.bias f4 [16]
0	0x3bd416a3	0.006472425
1	0xbb1869e9	-0.0023256487
2	0xbc5affce	-0.013366653
3	0x3beda1aa	0.007251938
4	0x3b84426c	0.0040362384
5	0x3b2539e1	0.00252115
6	0x3ab60dc5	0.0013889602
7	0x3b95d1b8	0.0045721196
8	0x3b32a380	0.0027258098
9	0xba025de4	-0.0004973097
10	0xbc5df777	-0.01354777
11	0x3ab2e506	0.0013648577
12	0xbb8b5f9a	-0.00425334
13	0x3c572329	0.013130941
14	0xbc9ae5e8	-0.018908456
15	0xbc947423	-0.018121785

conv3.2.running_mean f4 [16]
0	0x3e92beb6	0.28661126
1	0x3e51d6ed	0.20492144
2	0x3e15c27a	0.14624968
3	0x3e0c0b47	0.13676177
4	0x3e065a9d	0.13120504
5	0x3e0ed68d	0.13949032
6	0x3e032c38	0.12809837
7	0x3df94102	0.121706024
8	0x3e24bbac	0.16087216
9	0x3e22098a	0.15823951
10	0x3e0602ec	0.13087052
11	0x3e1273c3	0.14301972
12	0x3e92d5b5	0.2867867
13	0x3e352b68	0.1769234
14	0x3e0f6def	0.1400678
15	0x3df623d2	0.12018551

conv3.2.running_var f4 [16]
0	0x3d97099f	0.07374882
1	0x3cff44ad	0.031160677
2	0x3d6b7c8e	0.05749183
3	0x3da330d0	0.079682946
4	0x3d9d3754	0.076765686
5	0x3da90702	0.0825329
6	0x3d357b2e	0.044306926
7	0x3d4a47fb	0.049385052
8	0x3d823d8c	0.063593954
9	0x3d9b44b8	0.075814664
10	0x3d6050cc	0.054764554
11	0x3da97c4c	0.08275661
12	0x3d7c9b37	0.061671462
13	0x3d90abc6	0.07064013
14	0x3d232f3e	0.039839976
15	0x3d5e14b2	0.054218955

out.weight f4 [1, 16, 5, 5]
0	0xbd3c092d	-0.04590719
1	0xbdad5b80	-0.08464718
2	0x3c0bfa54	0.00854357
3	0xbd885da9	-0.06658489
4	0xbc039e0f	-0.00803329
5	0xbd8193ba	-0.06327005
6	0xbd141060	-0.03614843
7	0xbcde2cf8	-0.027121052
8	0xbd3cd8cb	-0.046105187
9	0xbd5b1fad	-0.053497005
10	0xbd93c810	-0.07215893
11	0xbd5b369d	-0.05351888
12	0xbcb3839a	-0.021913338
13	0xbd169983	-0.036767494
14	0xbd0d54af	-0.03450459
15	0xbcbfc1d2	-0.02340785
16	0xbcf8f2ec	-0.030389272
17	0xbd891611	-0.06693662
18	0xbd2f51af	-0.04280251
19	0xbc4d478b	-0.012529264
20	0xbcea19ba	-0.02857672
21	0xbc50cab1	-0.012743638
22	0xbcf61c86	-0.030042898
23	0xbb3bce20	-0.0028656796
24	0xbd8de260	-0.06927943
25	0xbd8965d5	-0.06708876
26	0xbd260e91	-0.040541235
27	0xbce5b77e	-0.028041597
28	0x3c3bd45c	0.011464205
29	0xbd5070b6	-0.05088874
30	0xbd74d82f	-0.05977648
31	0xbcddb6a7	-0.027064634
32	0xbc54e0b6	-0.012993028
33	0xbd80bd62	-0.06286122
34	0xbd12f69f	-0.035879727
35	0xbd81174a	-0.0630327
36	0xbc36d6fa	-0.011159653
37	0xbc8c77d9	-0.017146992
38	0xbd6c5193	-0.057694983
39	0xbd3826e1	-0.044958953
40	0xbcbfb626	-0.023402285
41	0xbd0d7c53	-0.034542393
42	0xbd682e88	-0.056685
43	0xbcf641bd	-0.030060643
44	0xbd70463d	-0.058660734
45	0xbd082ee8	-0.03324786
46	0xbcf56f22	-0.029960219
47	0xbc9f5906	-0.01945163
48	0xbc9006ed	-0.017581427
49	0xbcea1c85	-0.028578052
50	0x3d89030a	0.06690033
51	0x3c00133f	0.007817089
52	0x3d27b9a2	0.040948518
53	0x3d10903e	0.03529381
54	0x3c7a7dc8	0.015288778
55	0xbb96bdd9	-0.0046002683
56	0xbc792f16	-0.01520898
57	0x3cfd6c5d	0.03093546
58	0x3ced947c	0.029001467
59	0x3d3c5b79	0.045985673
60	0x3bc0bc61	0.0058818315
61	0x3d73f423	0.059559
62	0x3d7b98dc	0.061425075
63	0x3bbd9b4d	0.0057863356
64	0xbb8843a4	-0.004158454
65	0x3c38c877	0.011278263
66	0xbca47736	-0.020076375
67	0x3d2dcd94	0.042432383
68	0x3c9b2fdf	0.018943725
69	0x3d17a411	0.0370217
70	0x3d65282d	0.055946518
71	0x3b114012	0.0022163433
72	0x3c93435e	0.01797646
73	0x3d696d98	0.056989282
74	0xbc8ce71f	-0.01720005
75	0x3d8c01d1	0.06836284
76	0x3d46f282	0.048571117
77	0x3c0c7ca8	0.008574642
78	0xbc871d9d	-0.016493613
79	0x3d458c8e	0.048229747
80	0x3d3f2707	0.04666808
81	0xb9c0bb9e	-0.0003676088
82	0x3d34b09e	0.044113748
83	0x3d01c930	0.031686008
84	0x3d842758	0.06452817
85	0x3d51b111	0.051194254
86	0x3d0a8e8e	0.033827357
87	0xbcc89ebc	-0.024489753
88	0x3d6f4851	0.058418576
89	0x3d782c43	0.060589086
90	0x3c615d78	0.013755195
91	0x3cb43121	0.021996083
92	0x3cb199a9	0.021679716
93	0x3c99ff9a	0.018798638
94	0x3d4c5e4a	0.04989461
95	0x3d14db2e	0.03634184
96	0xbc85b962	-0.016323749
97	0x3d281e59	0.041044567
98	0xbb4e10e0	-0.0031443164
99	0x3d370977	0.04468676
100	0x3d1543b9	0.03644154
101	0xbc4fe5f6	-0.012689104
102	0x3d3bd645	0.04585864
103	0x3c979183	0.018502003
104	0xbb6ebd15	-0.003642862
105	0x3d5cad8e	0.053876452
106	0x3d13387b	0.035942536
107	0x3d28e91c	0.041237935
108	0xbcc228b8	-0.023701057
109	0xbcb89f85	-0.022537002
110	0xbcbdc2d4	-0.02316419
111	0x3d2b61d7	0.041841354
112	0x3d177736	0.036978923
113	0xbca0b949	-0.0196196
114	0x3d05a399	0.032626722
115	0x3d16e227	0.03683677
116	0xba10860f	-0.00055131403
117	0x3caffd26	0.021483015
118	0xbc280b40	-0.010256588
119	0x3bc0f369	0.0058883918
120	0x3d322045	0.043487806
121	0x3ce990fa	0.028511513
122	0xbc52f2b4	-0.012875248
123	0x3d0eaccb	0.034832757
124	0x3c3e9fab	0.0116347475
125	0xbb1e8c66	-0.002419257
126	0xbc76cb71	-0.015063153
127	0x3d03095f	0.03199136
128	0xbbaacdbb	-0.0052125133
129	0x3b40ddb5	0.0029429023
130	0x3d2b78ba	0.04186318
131	0x3ce45d4f	0.027876524
132	0x3a02d253	0.0004990447
133	0x3cff138d	0.031137252
134	0x3d4addc2	0.04952789
135	0x3c304fc6	0.010761207
136	0x3ba18252	0.0049288655
137	0x3cf199df	0.029492317
138	0x3d0985ad	0.03357475
139	0x3d1ea38e	0.038730197
140	0x3d7f03a8	0.062259346
141	0x3ca0b261	0.019616308
142	0x3d266135	0.040620048
143	0xbb091bc9	-0.0020921102
144	0x3c990ac6	0.018681895
145	0x3d915b0f	0.07097446
146	0xbc85976e	-0.016307559
147	0x3aeeca1a	0.001821819
148	0xbc003985	-0.007826214
149	0x3d9355c9	0.071940966
150	0xbd1b3758	-0.037894577
151	0x3c8b261a	0.016985942
152	0xbd5e73eb	-0.054309767
153	0xbd339b72	-0.043849416
154	0xbb530776	-0.0032200492
155	0xbd9461cc	-0.07245216
156	0xbd851cc3	-0.064996265
157	0xbd50d311	-0.05098254
158	0xbc985353	-0.01859442
159	0xbd8b9603	-0.06815722
160	0xbcdabab3	-0.026700353
161	0x3c521296	0.012821814
162	0xbd0f6f8b	-0.035018485
163	0xbcf7b1a9	-0.030236082
164	0xbd8882d7	-0.06665581
165	0xbd4a65b3	-0.049413394
166	0xbcdf3804	-0.02724839
167	0xbc8a0ebe	-0.016852733
168	0xbd26c96b	-0.04071943
169	0xbd678679	-0.056524727
170	0xbd8e1134	-0.06936875
171	0xbb39f180	-0.0028372705
172	0xbd794582	-0.060857303
173	0xbcf2c0bf	-0.029632924
174	0xbd3550d4	-0.044266537
175	0x3c5a454d	0.013322187
176	0x3cd133bc	0.025537364
177	0x3d74e3f3	0.0597877
178	0x3d805f72	0.06268205
179	0x3c955571	0.018229218
180	0x3c9e6ed8	0.019339964
181	0xba8c01f2	-0.0010681732
182	0x3a91f42c	0.0011135391
183	0x3c7b20bc	0.015327629
184	0x3d70f14b	0.058823865
185	0x3cf807c3	0.030277139
186	0xbcabcabf	-0.0209707
187	0x3be85bb6	0.007091011
188	0xbca791f3	-0.020455336
189	0x3d835ee7	0.064145856
190	0x3cdfd8ea	0.027325112
191	0x3b7332b8	0.0037109088
192	0x3d0e5a06	0.03475382
193	0xbcbaa445	-0.022783408
194	0x3bdcc56b	0.0067374012
195	0x3ce1e71d	0.027576024
196	0x3d48a5fb	0.048986416
197	0x3d4eba02	0.05047036
198	0x3c9df763	0.019283002
199	0xbcca1858	-0.024669811
200	0xbd239294	-0.03993471
201	0xbd8e858b	-0.06959065
202	0x3bda7f55	0.006668011
203	0xbd52b8da	-0.05144582
204	0xbd68c53e	-0.05682873
205	0xbd4d1f05	-0.05007841
206	0x3c4459c8	0.011984296
207	0xbbed9323	-0.007250206
208	0xbd7aa542	-0.06119276
209	0xbcd37e74	-0.025817133
210	0xbcba5cf3	-0.0227494
211	0xbd24bdc9	-0.040220056
212	0xbb86a1a9	-0.004108627
213	0xbd7aea5d	-0.061258662
214	0xbd511280	-0.051043034
215	0xbbf388cf	-0.0074320803
216	0x3c8971c7	0.016777886
217	0xbbe3755d	-0.006941481
218	0xbd439254	-0.04774697
219	0xbc2d109d	-0.010563043
220	0xbd894e50	-0.0670439
221	0xbd8ecc80	-0.06972599
222	0xbd70510c	-0.058671042
223	0xbd00a5c8	-0.0314081
224	0xbcceabc2	-0.025228385
225	0x3c718e49	0.014743396
226	0x3d614704	0.054999366
227	0x3c130257	0.008972726
228	0x3d73e0bd	0.0595405
229	0xbc560577	-0.013062826
230	0xbc2263a3	-0.009911451
231	0x3c6c7e43	0.0144344
232	0x3d2077ea	0.03917686
233	0x3cd24832	0.025669191
234	0x3d87c65e	0.066296324
235	0xbbdbeb79	-0.00671142
236	0x3d636145	0.055512685
237	0x3ce46696	0.027880948
238	0x3cdd44c4	0.027010329
239	0x3c87929e	0.016549405
240	0xbc44beb4	-0.012008358
241	0x3d232de1	0.039838675
242	0x3cd95d0c	0.026533626
243	0x3d4d8c08	0.050182372
244	0x3d5aceca	0.053419866
245	0xbc63c271	-0.013901339
246	0x3d854f19	0.06509227
247	0x3c3d5109	0.011554965
248	0xbc0d9cf4	-0.008643378
249	0x3d88e634	0.06684533
250	0x3ca07c71	0.019590588
251	0x3cfaf5c1	0.030634763
252	0x3cfa586a	0.030559737
253	0xbbb7b2f7	-0.005606051
254	0x3d526294	0.051363543
255	0x3d2d32f6	0.04228493
