S7/Optimisation/Stochastique/TP1/our_model.tar (torch, 2144 bytes, 3 tensors)

linear1.weight f4 [4, 2]
0	0xc04c4946	-3.1919723
1	0x40250147	2.578203
2	0xc031a152	-2.7754712
3	0x4055530d	3.333194
4	0xbfd081ff	-1.6289672
5	0xbfcff50f	-1.6246661
6	0xbf0dea76	-0.55435884
7	0x3e89047f	0.26761243

linear1.bias f4 [4]
0	0xbf8c34c1	-1.0953599
1	0x3f9c952b	1.2233022
2	0x3bf9f43b	0.0076279915
3	0x3dbf74a4	0.09348419

linear2.weight f4 [1, 4]
0	0x408aa27e	4.3323355
1	0xc08d9cff	-4.4254146
2	0xc02a0607	-2.6566179
3	0x3ebd897f	0.37018964
